models/lstm_model.tflite (tflite, 333744 bytes, 12 tensors)

arith.constant7 f4 [512]
00000000: 250e 38bc 1e7d 44bc 85c2 c4bb 3333 19bc
00000010: 943b 983b 4d58 1bbb 23b9 19bc b524 51ba
00000020: b95b 14bc f09a 06bc e334 e2bb a3dc 213c
00000030: c0d9 913c 95f8 9bbc 2777 533c c208 aabb
00000040: 9dae 6abc dd35 ab3c 13f9 9c3c 21f2 70bc
00000050: 0400 25bb 3a6f d5ba 2264 5d3c 28ec 9ebc
00000060: f9eb dbbc ce12 ee3a e49c 1cbd feae 10bc
00000070: 72dd 9dbb 4290 06bd c145 8c3c daf7 1b3d
00000080: 449e e3bc 9c8c 2b3b b369 963c ac4f 643c
00000090: 1ee8 c53c 1a26 17b9 7be6 bfbb dcdd 6cbc
000000a0: 8306 cbbc a515 76bc ee6f 033d 7cc4 e1bc
000000b0: e9b2 ddbb 0f71 9b3c 36c3 8fbc 6cc1 0abc
000000c0: e442 083d ed90 833c fe94 24bc d9fa b03b
000000d0: c409 0c3b 3463 58bb bfd5 46bc ef13 953c
000000e0: 243e 5ebb 26b9 273d f3b3 973c fc2b f0bc
000000f0: f234 49bc fceb a23a 8756 4f3c 505d 733b
00000100: 800d 06bc dedf 9c3b c406 0a3b bb4f 66bc
00000110: 9039 e6bc 211c dcbc 2d42 b63c e086 3fbc
00000120: 9e33 b13d 6740 423c 931e 443c 5840 3d3c
00000130: c99d bcbc 5c08 91bb 7b36 ef3d 195f 2abc
00000140: da99 0d3d 987a 93bb a93b a2bc 9ab6 df3b
00000150: 2880 d33b 5f08 693c d6ac 4d3b 0e87 d43c
00000160: 8e61 3d3c f33a 1abb 4bf5 18bb 92cd 263d
00000170: 0409 a0bc a493 a9bc 5019 b6bc 80e8 863b
00000180: 7906 9bbc 861d c23b de08 a4bb b7d4 ab3b
00000190: c7d6 c3bc b8bb b7bc 23f4 2cbc acc6 09bd
000001a0: 7d28 85bc 535f fdbb 8f5c a23c 42c3 d0bb
000001b0: 4f4d 62bc c9cb 333c dff6 55bc e7a8 6abc
000001c0: 6cc2 013c 491a f8bb 1316 65bc a70f 8ebb
000001d0: 3be8 f539 c181 8abc dfc4 493d 30ae 993b
000001e0: 36e0 f1bb 00b4 dbbc 1f41 ae3b 9443 1dbc
000001f0: 5186 debb d399 c8bb e704 123c 4780 2eba
00000200: fe4a 7e3f d1eb 7c3f 1848 803f 933d 7e3f
00000210: 1c3d 813f da34 7f3f 27fe 7c3f a043 803f
00000220: 52ea 7d3f 9834 803f 95ab 823f 24e1 813f
00000230: 53ff 823f e54f 7c3f 872d 823f fc65 803f
00000240: 2778 793f 37d9 833f 1f59 833f 8660 7d3f
00000250: 033d 803f 1ca9 813f a863 843f b5e7 7b3f
00000260: 2b87 7a3f a39c 813f 9f99 783f 7564 803f
00000270: 446a 803f 5385 7a3f 200d 853f 214b 8f3f
00000280: fcf7 793f 3f46 803f 29ee 833f 19fc 813f
00000290: 58a2 853f 083f 823f ea67 7e3f e779 7d3f
000002a0: 6141 7c3f 006c 7c3f 4c02 863f 5e36 7e3f
000002b0: d0c9 7e3f b2f6 833f 49bc 7e3f 7bbc 803f
000002c0: f84d 863f 7ca6 823f cc37 7f3f 37d6 823f
000002d0: 76ae 803f d452 803f e84a 7e3f e92c 823f
000002e0: b1a6 803f 9875 863f 3f8b 833f a941 793f
000002f0: 9906 803f 5ea9 813f 71fe 833f 63b3 803f
00000300: 36d2 7d3f 52f2 803f 9b07 813f f6cc 7c3f
00000310: e2d6 793f 0ace 793f cf2c 833f 01b3 7d3f
00000320: 4c12 8c3f 186f 823f 81dd 823f 4624 823f
00000330: f15c 793f 308e 803f bdac 943f 129a 7e3f
00000340: 136b 853f 3a6f 803f f19f 7e3f a1eb 813f
00000350: 32fc 833f f55f 833f a25b 813f 2b7c 833f
00000360: 0ba7 823f c0c1 803f 2fd5 803f ccb8 883f
00000370: 4cf6 7a3f 3a0f 7c3f 5a35 7e3f fa9a 813f
00000380: 8774 7c3f bc69 803f 911f 813f b921 813f
00000390: 0e8d 7b3f e5a1 7c3f f42f 7f3f 39a7 7b3f
000003a0: 9337 7e3f 3f0f 803f f1c9 833f e927 7f3f
000003b0: 627b 7c3f ef95 813f 5eb8 7c3f 2b2a 7c3f
000003c0: ad0f 823f 640b 7f3f d2be 7c3f 2d33 803f
000003d0: fa24 813f 0f0a 7d3f ad2b 853f 5175 823f
000003e0: c44e 7f3f ccc6 7a3f ddc2 813f ef0f 7f3f
000003f0: bf6f 7f3f b654 7e3f 381a 833f 8383 803f
-0.011233841 -0.011992721 -0.006004634 -0.009350586 0.004645774 -0.0023703754 -0.009382519 -0.0007978187
-0.0090550715 -0.008215651 -0.0069032772 0.009879264 0.017804027 -0.019039432 0.012906826 -0.0051890323
-0.014323858 0.020899707 0.019161737 -0.0147061655 -0.0025177011 -0.0016283758 0.013512643 -0.019399717
-0.026845919 0.0018163563 -0.03823556 -0.008830784 -0.004817658 -0.03285242 0.017123105 0.038078167
-0.027785428 0.002617634 0.018360948 0.013935011 0.024158534 -0.00014414676 -0.005856333 -0.014457192
-0.024783378 -0.015019809 0.032089166 -0.027559511 -0.0067657125 0.018974809 -0.017549139 -0.008468967
0.033266917 0.016060317 -0.010045288 0.005400997 0.0021368125 -0.0033018114 -0.012135922 0.018197982
-0.003391155 0.040948056 0.018518424 -0.029317848 -0.01228069 0.0012429948 0.012654907 0.0037134476
-0.00818193 0.0047874292 0.0021061162 -0.014057095 -0.02810362 -0.026868882 0.022248352 -0.011689872
0.08652423 0.011856175 0.01197018 0.011550985 -0.023024457 -0.0044260453 0.11680313 -0.01039865
0.034570552 -0.0045006983 -0.019803839 0.0068271877 0.0064544864 0.014223187 0.0031383536 0.025943305
0.011558903 -0.0023533672 -0.0023339565 0.04072339 -0.019535549 -0.020700283 -0.022228867 0.0041170716
-0.018923985 0.0059239296 -0.00500594 0.0052438634 -0.023906125 -0.022428378 -0.010556254 -0.033636734
-0.016254658 -0.007732311 0.019819526 -0.006370933 -0.013812377 0.010973879 -0.013059347 -0.014322496
0.007919889 -0.007571493 -0.013982314 -0.004335362 0.00046903067 -0.016907575 0.049260017 0.004689954
-0.0073814644 -0.02681923 0.0053178216 -0.009598631 -0.006790914 -0.006121853 0.008912302 -0.0006656688
0.9933318 0.9879733 1.0022001 0.99312705 1.0096774 0.9969002 0.98825306 1.0020638
0.9918567 1.001605 1.0208613 1.0146832 1.0234169 0.9855941 1.0170144 1.0031123
0.9744896 1.0300664 1.0261573 0.9897541 1.0018619 1.0129733 1.0342913 0.9840043
0.978625 1.0125927 0.9710941 1.0030657 1.003243 0.97859687 1.039463 1.1194803
0.9764402 1.0021437 1.0307056 1.0155059 1.0440168 1.0175486 0.9937731 0.99014133
0.9853726 0.98602295 1.0469451 0.9930171 0.9952669 1.030966 0.9950605 1.005752
1.0492544 1.0207057 0.99694514 1.0221623 1.0053241 1.0025277 0.9933305 1.0169955
1.005087 1.0504637 1.027687 0.97365814 1.0002013 1.0129812 1.0312024 1.0054744
0.9914888 1.007395 1.0080446 0.98750246 0.9759351 0.97580016 1.024805 0.99101263
1.0943084 1.0190153 1.0223848 1.016732 0.9740744 1.0043392 1.1615216 0.9945384
1.0423301 1.0033944 0.994628 1.0150033 1.0311339 1.0263659 1.0106089 1.0272268
1.0207227 1.0059128 1.0065058 1.0681396 0.9803207 0.98460734 0.9930016 1.012542
0.98615307 1.0032268 1.0087758 1.0088416 0.9826211 0.9868453 0.99682546 0.98302037
0.9930355 1.0004653 1.0296003 0.99670273 0.9862577 1.0123881 0.9871882 0.98501843
1.0161034 0.99626756 0.9872867 1.0015618 1.0089409 0.98843473 1.0403954 1.0192052
0.9972956 0.9795959 1.0137593 0.9963369 0.99779886 0.9934801 1.0242376 1.0040134

arith.constant8 f4 [256]
00000000: 7218 82bc 4d7e 833c 63dc 9e3c 33e8 383b
00000010: ea4f dc3c 2949 db3c 3c97 6e3d 7e09 3b3a
00000020: 1db6 e93b 0b36 803d 9e68 d73b e7c4 11bc
00000030: 1b88 333d fec6 b93d e3d1 d53b 8c5f df3c
00000040: cc23 663c a312 59bc d573 cc3c 9b69 8a3b
00000050: c304 86bc de87 f8bb 4eda 9f3a d283 773c
00000060: 710d 233c f748 903c 6411 263d 7078 10bc
00000070: bc5f 9d3a a3c6 a3bb 5c4d 073d e76f 373c
00000080: 8c0b ae3d e865 a63b c41d 563c 9c52 0d3d
00000090: c866 1e3c 31c4 0b3c 266d 483d a568 583b
000000a0: 07c7 9a3c b179 6a3c 1497 8db9 9f32 223c
000000b0: 1f33 333c ee82 75bc 0c19 963c 1a47 7c3b
000000c0: 5b58 993c 8817 193c 7631 593c 7952 adbc
000000d0: 2b06 2bbc 0d2d 87bc 41a0 4b3d e5d6 313c
000000e0: adbd fe3c c458 2bbc 7ecc 0b3c 1b25 643c
000000f0: 1356 babc 5c92 583c b241 03bc 1b26 8e3c
00000100: 8a24 7e3f d223 833f 21c3 823f f691 803f
00000110: 0656 833f 7eb0 833f 46e4 843f 9418 813f
00000120: d630 813f 74b5 883f 8a3a 813f 1df4 7d3f
00000130: b6b6 843f f4ed 893f c924 813f d9ed 823f
00000140: cf19 823f 3f7b 7e3f 0b6f 833f 0cbd 803f
00000150: 66db 7f3f 9ec6 7e3f 4717 813f 5c8f 823f
00000160: 2c67 813f c82f 833f 1da1 853f df91 7e3f
00000170: 1e0d 813f b136 7e3f 64dc 833f 8252 823f
00000180: 0e65 8b3f 0bf4 803f ecd0 813f 99c3 843f
00000190: b2cf 813f e2a9 813f 8b30 843f c145 813f
000001a0: 8c21 833f bf87 823f 3d10 803f ccf3 813f
000001b0: 0b60 813f 76d1 7a3f f51e 823f 841d 813f
000001c0: 8705 833f e120 813f 8691 823f 41e7 7c3f
000001d0: 8d9f 7d3f bb55 7c3f 88e0 853f 8f29 823f
000001e0: 82fc 843f 322c 7d3f 0599 813f 248c 823f
000001f0: cd09 7a3f fbd2 813f 5189 7d3f 29e0 823f
00000200: 7b84 e7bc 03f1 c73a 512a 563c 9434 bcbc
00000210: 7166 c33c ffea 833c 442c ebbc 33db a2bc
00000220: da0a f43b 9744 4f3b 8feb e6bb 4e64 e0bb
00000230: 0871 bbbb 060b 00bd d1f8 3e3c ab56 29bc
00000240: 38ac 1cba 78b7 d8bc 4e4b ae3b 0097 58bc
00000250: 07fa 04bc 20b7 5ebc e4dc 24bc 8332 29bc
00000260: f5f5 613c 0477 8cbc c73a 2c3c 39d5 80bc
00000270: 6d23 88bc 3498 6a3b 5217 833c 6ce2 713c
00000280: 1cf3 083b 818a eebc bb49 babb 1756 0bbd
00000290: f92f b9bb 3058 00bb a1f0 83bc c4b6 f6bc
000002a0: ab46 893b 35d2 77bc 394d 45bc 7e84 bcbc
000002b0: afa5 5dbc 69f7 e2bc b942 fabc 0373 123a
000002c0: b24e 43bc da75 9f3b f968 ecb9 0f8f 07bd
000002d0: 99ef 6abc dd81 ecbc 2a9a 50bc 8033 483c
000002e0: 7c20 c9b9 9976 5cbc 70ea babc 96b5 45bc
000002f0: 5edc 8fbc f52e d33b 02dc c7bc d07c f73a
00000300: 3a72 83bc caa5 893c 1c5b 993c 3248 483b
00000310: 3f6d f03c f1cf e03c 694e 6b3d 4f8b 333b
00000320: 6993 f03b e9f4 7a3d 28d9 cf3b 02cc 13bc
00000330: 36ce 303d 3538 bd3d 6ed5 e73b f49b e53c
00000340: a452 5e3c 9f4c 66bc 3aab d13c 6cf0 453b
00000350: dbd1 88bc cd8a fcbb 4952 953a fa7a 603c
00000360: 6756 2c3c 0408 923c 5990 263d 60e2 16bc
00000370: 94d6 2b3a f482 9dbb 1efd 073d 0b96 3e3c
00000380: 0d9b a83d 4cef a63b d98d 4f3c 5e4d 0f3d
00000390: 9f3b 253c 413c 023c dd9a 483d b31e 893b
000003a0: 289f 973c 9fb7 6f3c 0067 14ba 6aa8 333c
000003b0: f3db 243c cf30 76bc c210 9f3c ee6b 843b
000003c0: c3cd a83c 4eb9 1c3c 31d6 4d3c 1ec3 98bc
000003d0: 1e8e 38bc 8ef9 79bc 3e9a 4e3d ff98 413c
000003e0: 4957 ff3c 9954 2abc 5304 0f3c a2c3 603c
000003f0: 4be7 bcbc 6747 563c 69bf 0dbc 6858 923c
-0.015880797 0.016051436 0.019392198 0.0028214573 0.026893575 0.026768284 0.058249697 0.00071348983
0.0071323053 0.06260308 0.0065737506 -0.008897043 0.043830972 0.09071158 0.0065252646 0.02726724
0.014046621 -0.013249072 0.024957577 0.004224015 -0.016359692 -0.007584556 0.0012195797 0.015107112
0.009951935 0.017612917 0.04054393 -0.008817777 0.001200668 -0.0049980446 0.03303276 0.011196113
0.08498296 0.005078066 0.01306862 0.03450261 0.00966806 0.008530662 0.048932217 0.0033021357
0.018893732 0.01431124 -0.00027006178 0.009899764 0.010937481 -0.014984829 0.01832249 0.0038494528
0.018718889 0.009343989 0.013256421 -0.02115749 -0.010438482 -0.016500974 0.049713377 0.0108544575
0.031096304 -0.010458175 0.008532641 0.013924862 -0.022746122 0.013218489 -0.008011268 0.017352154
0.99274504 1.0245306 1.0215799 1.0044544 1.0260627 1.0288236 1.0382164 1.0085626
1.0093029 1.0680375 1.009599 0.9920061 1.0368259 1.0775743 1.0089351 1.0228835
1.0164126 0.9940681 1.0268263 1.0057693 0.9994415 0.99521816 1.0085229 1.02
1.010961 1.0248957 1.0439793 0.9944133 1.0082128 0.993022 1.0301633 1.0181429
1.0890214 1.0074476 1.0141883 1.0372192 1.0141509 1.0129969 1.0327314 1.0099412
1.0244613 1.0197676 1.0004956 1.0152526 1.0107435 0.9797586 1.0165697 1.0087132
1.0236062 1.0088159 1.020066 0.98790365 0.9907158 0.98568314 1.0459146 1.0168933
1.0389559 0.9889556 1.0124823 1.0199018 0.97671205 1.0142511 0.99037653 1.0224658
-0.028261414 0.0015254322 0.013071612 -0.02297429 0.023852559 0.016103266 -0.028707631 -0.019879913
0.0074475827 0.0031626576 -0.0070471237 -0.0068478948 -0.0057202615 -0.031260513 0.011656002 -0.010335605
-0.00059765903 -0.026454672 0.0053190356 -0.013219595 -0.008116252 -0.013593465 -0.01006243 -0.010326984
0.013791551 -0.017146595 0.0105120605 -0.015726672 -0.016618455 0.0035796287 0.01600233 0.014763456
0.0020896858 -0.029118778 -0.005685059 -0.03401765 -0.0056514707 -0.0019583814 -0.016105952 -0.030116446
0.0041893325 -0.015125801 -0.012042337 -0.023012396 -0.013528272 -0.027705865 -0.030549394 0.0005586596
-0.011920618 0.004866344 -0.00045091638 -0.033095416 -0.014339351 -0.028870517 -0.012732068 0.01221931
-0.0003836191 -0.01345601 -0.022816867 -0.012067219 -0.017561134 0.0064448067 -0.0243969 0.0018881802
-0.016045678 0.016802687 0.018720202 0.003056061 0.029348968 0.027442904 0.057447825 0.0027396267
0.0073417914 0.06126872 0.0063430257 -0.009020807 0.043165408 0.09239236 0.0070750033 0.028028466
0.013569508 -0.014056354 0.025594342 0.0030203117 -0.01670163 -0.007706976 0.0011392321 0.013701195
0.010518647 0.017826088 0.040665004 -0.009209245 0.0006555107 -0.0048068706 0.033200376 0.011632453
0.082326986 0.0050944444 0.012668096 0.034985892 0.010085016 0.007948936 0.048975814 0.004184568
0.018508509 0.014631181 -0.00056611 0.010965446 0.010062206 -0.015026285 0.01941717 0.0040411865
0.020605927 0.009565664 0.012563274 -0.018647727 -0.011264352 -0.015257252 0.050440066 0.011816262
0.03116955 -0.010396146 0.008729058 0.0137185175 -0.023059508 0.013078547 -0.008651593 0.017864421

arith.constant9 f4 [32]
00000000: 9d92 cbbc 76ce 12bc d699 ef39 96c3 09bc
00000010: d2ac 7f3e 3c24 b83c 9971 4c3e 70fe 84bd
00000020: d2ca 19bc 31c6 79bc bd93 c03c 5337 103e
00000030: 3db6 b83c 0870 28bd f30e ccbc eb47 c73d
00000040: 2b8f 4f3d 051b 693e 4c1e 22be f929 80bd
00000050: 208f 8e3d 7382 86bc c6ec 44bd 0000 0000
00000060: 1123 db3d b67c 3a3d 0130 3bbd 61d3 2c3c
00000070: 1a23 443e 1e36 c13d d410 0d3e cb3b 303d
-0.024850184 -0.008960357 0.0004570025 -0.008408448 0.2496827 0.022478215 0.19965209 -0.064938426
-0.009386735 -0.015245006 0.023507947 0.14083605 0.022547835 -0.041122466 -0.024909472 0.09730514
0.050673645 0.22764213 -0.1583187 -0.06258006 0.06960893 -0.016419625 -0.048077367 0.0
0.10700048 0.04552909 -0.045700077 0.0105484435 0.19154015 0.0943415 0.1377595 0.043025773

arith.constant10 f4 [64]
00000000: cb99 8b3e 3791 513d aad3 943e f367 35bd
00000010: 7e87 3b3d b01c 6fbd 2827 283d b254 01bd
00000020: bba2 1f3d 5709 343d b085 553d 255a 013d
00000030: 7618 393e 3f09 a2bd 055b d4bd e848 d43d
00000040: 3463 873d 5301 043e c5cf b83c 444a 163e
00000050: 2415 743e 93cb 0e3e f22a 113d c8cf 203e
00000060: 5c0e ab3d 8648 2d3e 9519 3c3d d298 3d3e
00000070: e0d4 14bd b179 f93d e3aa 113e 9cce 8fbc
00000080: 069d d13d 07be 173e 5e4e 583d db20 d93c
00000090: a637 253d 5766 623d 6a04 c0b9 7807 2e3d
000000a0: f242 e5bc bd7c 753e 76aa b73c d780 c7bc
000000b0: 5766 45bd 08e0 503e c67c 85bc cbfe 5d3d
000000c0: d865 33bd eae9 e13c e287 56bd cfc1 53bc
000000d0: 1076 373e 76f0 683e 515c 283e 33ee 1d3e
000000e0: 41ff 873d 1251 233e 9011 443e 918c 923d
000000f0: defe 2f3e 2e18 e43c 97be 6a3e 1f5c 003e
0.27265772 0.05116388 0.29067737 -0.044288587 0.045783512 -0.058376968 0.041052967 -0.031574912
0.03897355 0.04395422 0.052129447 0.03158011 0.18075737 -0.0791192 -0.10368923 0.10365468
0.06610718 0.1289113 0.02256001 0.14676768 0.2383619 0.13944845 0.035441346 0.15704262
0.08352348 0.16922197 0.045922834 0.18515328 -0.036335826 0.12181414 0.14225344 -0.017554574
0.10235028 0.14818583 0.05280911 0.026504925 0.040336274 0.05527338 -0.00036624382 0.04248759
-0.027986024 0.23973365 0.02242015 -0.024353428 -0.048193302 0.20397961 -0.016294848 0.054198068
-0.043798298 0.02757736 -0.05237568 -0.012924626 0.17916131 0.22747979 0.16441466 0.15422897
0.06640483 0.15948895 0.19147325 0.07155717 0.17187068 0.027843561 0.22924267 0.12535141

arith.constant11 f4 [5]
00000000: 6dd6 cbbd d7a9 363e 6ed9 2bbb 3078 20bd
00000010: a10a 873c
-0.09953008 0.17838226 -0.0026222127 -0.03917712 0.01648456

arith.constant12 f4 [5, 32]
00000000: 8460 87be 6fe3 c4bb d56d 043e 1845 c8ba
00000010: 36af 03bf 8220 b73e bfcd 62be f179 f33d
00000020: 04c2 95bd e907 94be 9093 d8be 8aff bfbe
00000030: f062 0f3e 19dd 403e 21c1 edbd 28e1 103e
00000040: 0728 173e 1f45 dfbe 9057 b7be 04c0 a73e
00000050: 1c14 cabe 1dec 95bd 1257 bf3c 186e 95be
00000060: a26c 6abe 3fa5 e13d a0b8 c13e dc43 263e
00000070: e22a 393d fd46 c3be e637 cebe 70a9 923e
00000080: 1411 08bf 8a60 60be ca4a 973c 9761 b3be
00000090: 9462 a33e 0984 1dbf 0c3f ca3e 4cfc 373e
000000a0: b331 78be f4e3 883e deb4 3e3d b669 b83e
000000b0: 7b70 e8bc 0400 17bd 950c 3cbe 3a95 a53e
000000c0: 5c63 8abc 07fd 793c 21e5 b3be 0b6d 2bbe
000000d0: 477c bcbe 0151 4e3e ee09 2abe 2a8e cc3e
000000e0: 5263 873e 97dd 23bf 3c72 adb9 d5aa 423e
000000f0: bb15 1b3c d40d 43bf e82a bc3d 08b1 1fbf
00000100: 94ae 20be 4426 11bf c1dc ca3d 1183 afbe
00000110: 5029 dcbd 71f3 bd3e cfc1 773d 46c2 943e
00000120: 6021 75bd a461 24be 39b5 5c3d 95aa 0b3d
00000130: c142 7b3b db1a 33be 1d5e e0bb 50ff f7bd
00000140: f7a1 113e 7737 85be 580d 763e 11df 64be
00000150: b515 a5be 2299 b03e e19d 19bf 8c7b a33e
00000160: 2747 0bbf 03d1 3c3e 8221 833e 19ab d33e
00000170: 66b2 2abf 339a ad3e 480a 763e a74c 393e
00000180: 4a2a cc3c bec7 8ebe cef0 dc3b eb18 a43e
00000190: 423c 92be 7d4d 11bd 081f 1c3e c70c 903e
000001a0: 3a1e b2be cd91 b5bd d59d 9e3e c53f 6d3e
000001b0: baa7 e2be d0bc 56be 9695 543e 8ab6 a83d
000001c0: 61da 88ba 3b22 b7bd efc3 6f3d 1187 a7be
000001d0: cb81 61bd 811f b53e 5516 4f3e 8418 54be
000001e0: ee94 c33e 9102 5ebe 0e59 aabe efd6 c9be
000001f0: 3541 9e3d bc11 e3be 8f76 b0be 5e90 38be
00000200: 1c9c ef3d 4508 c6be 5e67 143e de80 82be
00000210: eb9a c13d 6047 80be c9c2 873e 82e4 833e
00000220: 91be 983e c416 af3e 4c31 adbe b56d 13be
00000230: b871 9a3e 82ac bdbd b245 50bd 7b35 94bd
00000240: 8607 a5bd 12ed f1bd 1f3d dabd 23bd 48bd
00000250: 6c9c 033e 843b 8bbe e85a 2b3e e673 0dbe
00000260: 44c5 7a3e ebb8 76be 71bc dcbd c776 70be
00000270: ec17 95bd 68dc 893d c303 683e fd0c 41bd
-0.26440823 -0.0060085575 0.12932523 -0.0015279381 -0.51439226 0.3576699 -0.22148798 0.11888493
-0.07312396 -0.28912285 -0.4230008 -0.37499648 0.14002585 0.18834342 -0.11609102 0.1414839
0.14761363 -0.43607423 -0.35808992 0.32763684 -0.39468467 -0.07320426 0.023356948 -0.29185557
-0.22893003 0.11017846 0.3783617 0.16236824 0.04520691 -0.38140097 -0.40277022 0.28644896
-0.5315106 -0.21911827 0.01846828 -0.35035393 0.31911147 -0.61529595 0.39501226 0.17967337
-0.24237709 0.26736414 0.046559207 0.3601815 -0.028373947 -0.03686525 -0.18364175 0.32340413
-0.016893081 0.01525808 -0.3513575 -0.16740815 -0.36813566 0.20148088 -0.1660535 0.39952213
0.26442963 -0.64009994 -0.00033082243 0.1901048 0.00946563 -0.76192975 0.09187871 -0.62379503
-0.15691596 -0.56699014 0.09905387 -0.34279683 -0.10750067 0.37099794 0.060487565 0.2905447
-0.059846282 -0.16052872 0.053883765 0.034098227 0.003833935 -0.17490713 -0.0068471567 -0.12109244
0.14221941 -0.2601888 0.24028528 -0.22350718 -0.32243124 0.3449183 -0.6000653 0.31930196
-0.54405445 0.18439107 0.25611502 0.41341475 -0.66678464 0.33906707 0.2402736 0.18095647
0.024922509 -0.27886766 0.0067425733 0.3205026 -0.28561598 -0.03547429 0.15246212 0.28134748
-0.34788686 -0.088657 0.3097979 0.23168857 -0.4426859 -0.20970464 0.20760188 0.082379416
-0.0010441059 -0.08942076 0.058536466 -0.32720235 -0.05505542 0.35375598 0.20223363 -0.20712477
0.38199562 -0.21680667 -0.33271068 -0.39421794 0.07727281 -0.44349468 -0.34465453 -0.18023822
0.116996974 -0.38678184 0.14492556 -0.25488943 0.094533764 -0.25054455 0.26515797 0.25760275
0.2983289 0.34197056 -0.33826673 -0.14397319 0.30164886 -0.09261419 -0.050847717 -0.07236763
-0.080580756 -0.11812796 -0.10656189 -0.0490085 0.12852639 -0.27193844 0.16733897 -0.13813743
0.24489313 -0.24093978 -0.1077813 -0.2348281 -0.07279953 0.06731492 0.22657685 -0.047131527

tfl.pseudo_qconst i1 [32, 64]
00000000: f7fe 1423 4efc 1bc5 ebad b452 2fca 5e1c
00000010: 55d0 5a6b f638 353d face 31cb 0409 1535
00000020: cf07 5cff f626 f9b7 3e09 0ffe 0a1d 06b7
00000030: 16e6 e81f fbb7 8104 2117 51f3 4d37 03f8
00000040: ed44 c8da 12f8 a1e8 be39 b3e6 51e2 a4b5
00000050: 1515 08d8 2f0a ca25 e72f 81ae 46fd 4d39
00000060: e89c 07dd 08c8 4f0b be40 b639 a033 62be
00000070: 4647 f631 c037 f415 e6cf ff41 2a18 2532
00000080: 3c2a c923 b609 9ba6 3158 4459 bbe9 fa25
00000090: 448c 74fa 3208 f351 194e 4cd6 0797 169e
000000a0: 0ab8 39e3 2213 0cca a344 13ef 9bcb 8152
000000b0: 6865 920d fb52 b623 ac01 3bef cfd0 dd5f
000000c0: 05e4 0c1a 2a96 f99e 8e89 1b18 d46c 34ba
000000d0: cf6f 982b d30e c36c 6fec b3aa a7eb 6007
000000e0: efa4 442f 3155 384a 73a1 d773 40a2 b6bf
000000f0: 2d18 7c45 3eb5 829d 7f32 fdce f913 f405
-9 -2 20 35 78 -4 27 -59
-21 -83 -76 82 47 -54 94 28
85 -48 90 107 -10 56 53 61
-6 -50 49 -53 4 9 21 53
-49 7 92 -1 -10 38 -7 -73
62 9 15 -2 10 29 6 -73
22 -26 -24 31 -5 -73 -127 4
33 23 81 -13 77 55 3 -8
-19 68 -56 -38 18 -8 -95 -24
-66 57 -77 -26 81 -30 -92 -75
21 21 8 -40 47 10 -54 37
-25 47 -127 -82 70 -3 77 57
-24 -100 7 -35 8 -56 79 11
-66 64 -74 57 -96 51 98 -66
70 71 -10 49 -64 55 -12 21
-26 -49 -1 65 42 24 37 50
60 42 -55 35 -74 9 -101 -90
49 88 68 89 -69 -23 -6 37
68 -116 116 -6 50 8 -13 81
25 78 76 -42 7 -105 22 -98
10 -72 57 -29 34 19 12 -54
-93 68 19 -17 -101 -53 -127 82
104 101 -110 13 -5 82 -74 35
-84 1 59 -17 -49 -48 -35 95
5 -28 12 26 42 -106 -7 -98
-114 -119 27 24 -44 108 52 -70
-49 111 -104 43 -45 14 -61 108
111 -20 -77 -86 -89 -21 96 7
-17 -92 68 47 49 85 56 74
115 -95 -41 115 64 -94 -74 -65
45 24 124 69 62 -75 -126 -99
127 50 -3 -50 -7 19 -12 5

tfl.pseudo_qconst1 i1 [64, 128]
00000000: 4400 2604 c229 f4cc 064a df23 cfe1 f501
00000010: f645 28bd 0606 f5f3 3623 0e3a 200d ead3
00000020: ea21 f1fe b124 ce4f 25bd bf09 df39 207f
00000030: 09c1 fee6 ec52 c54c dd6b 4e29 07d8 3720
00000040: ebd5 214f d805 09f2 ab1c 1c2d dbdc 25ca
00000050: fc10 3e4e 1f08 cb5f 3e51 3d32 1738 02c4
00000060: 4a4f 0745 1238 dbfc 3f27 4d26 14c0 3fe9
00000070: 4038 f236 32e3 14ff 251b 1648 3503 550d
00000080: d32a 6567 15ad 6649 f3ca 536a dad7 1f09
00000090: 70aa a4b9 5be5 45f5 d6e3 fff6 e307 ba93
000000a0: 9f1d 7f35 77f6 2dc8 07b6 de72 21dc 0ec7
000000b0: c459 03da 30ec 00b9 f992 e265 465e 4efd
000000c0: 8eca 2d24 f2fd e147 5aeb 0271 f702 5898
000000d0: ba64 3ae5 d52c 30b1 ce59 d7b6 a49b 245e
000000e0: 12b4 3fda 31ca e0f3 9858 1cde 31bd 6363
000000f0: 41bc 57d8 f5a7 5364 c425 74bb 219d eea6
68 0 38 4 -62 41 -12 -52
6 74 -33 35 -49 -31 -11 1
-10 69 40 -67 6 6 -11 -13
54 35 14 58 32 13 -22 -45
-22 33 -15 -2 -79 36 -50 79
37 -67 -65 9 -33 57 32 127
9 -63 -2 -26 -20 82 -59 76
-35 107 78 41 7 -40 55 32
-21 -43 33 79 -40 5 9 -14
-85 28 28 45 -37 -36 37 -54
-4 16 62 78 31 8 -53 95
62 81 61 50 23 56 2 -60
74 79 7 69 18 56 -37 -4
63 39 77 38 20 -64 63 -23
64 56 -14 54 50 -29 20 -1
37 27 22 72 53 3 85 13
-45 42 101 103 21 -83 102 73
-13 -54 83 106 -38 -41 31 9
112 -86 -92 -71 91 -27 69 -11
-42 -29 -1 -10 -29 7 -70 -109
-97 29 127 53 119 -10 45 -56
7 -74 -34 114 33 -36 14 -57
-60 89 3 -38 48 -20 0 -71
-7 -110 -30 101 70 94 78 -3
-114 -54 45 36 -14 -3 -31 71
90 -21 2 113 -9 2 88 -104
-70 100 58 -27 -43 44 48 -79
-50 89 -41 -74 -92 -101 36 94
18 -76 63 -38 49 -54 -32 -13
-104 88 28 -34 49 -67 99 99
65 -68 87 -40 -11 -89 83 100
-60 37 116 -69 33 -99 -18 -90

tfl.pseudo_qconst2 i1 [512, 64]
00000000: 5ebc ddad d0f7 cce6 36f3 3be0 de52 504d
00000010: e7cc b6ea b503 e7fa b40d 4600 c421 28e2
00000020: 94e3 e6ed 4a00 2b05 fd1f f67f e711 ce25
00000030: db3c c11c 1642 2710 110f e530 f716 5900
00000040: a237 95b1 8e90 5bb7 2859 3a12 344f 268f
00000050: 3b1f 9b1f dc47 daa7 1b7f cd99 c0f8 1ed7
00000060: 47cc 2a27 2f19 dc48 eafa 4ef6 f4d7 2cfe
00000070: b813 f3a8 c09e 9b3e daa8 3017 210f ad97
00000080: 9840 cefc d3f4 07c3 034b e6bb 8fdb 2fb8
00000090: acce 819f f016 3eac 4805 3dbc 3f0b e085
000000a0: a9b1 01e2 ac18 f1e6 84dc 5213 db1d e34a
000000b0: fbe4 41e3 d618 6b45 a796 a339 06d4 09f6
000000c0: 5bc3 1b00 05f8 c2b7 5452 c2e9 c30d e10b
000000d0: a875 adb7 3b02 2bc5 b84f b74f 54d6 afa2
000000e0: ed48 1f5c 02b0 65d8 b424 67d5 ccf2 3094
000000f0: ffc3 e292 a113 67db cf33 638d ca43 7ff2
94 -68 -35 -83 -48 -9 -52 -26
54 -13 59 -32 -34 82 80 77
-25 -52 -74 -22 -75 3 -25 -6
-76 13 70 0 -60 33 40 -30
-108 -29 -26 -19 74 0 43 5
-3 31 -10 127 -25 17 -50 37
-37 60 -63 28 22 66 39 16
17 15 -27 48 -9 22 89 0
-94 55 -107 -79 -114 -112 91 -73
40 89 58 18 52 79 38 -113
59 31 -101 31 -36 71 -38 -89
27 127 -51 -103 -64 -8 30 -41
71 -52 42 39 47 25 -36 72
-22 -6 78 -10 -12 -41 44 -2
-72 19 -13 -88 -64 -98 -101 62
-38 -88 48 23 33 15 -83 -105
-104 64 -50 -4 -45 -12 7 -61
3 75 -26 -69 -113 -37 47 -72
-84 -50 -127 -97 -16 22 62 -84
72 5 61 -68 63 11 -32 -123
-87 -79 1 -30 -84 24 -15 -26
-124 -36 82 19 -37 29 -29 74
-5 -28 65 -29 -42 24 107 69
-89 -106 -93 57 6 -44 9 -10
91 -61 27 0 5 -8 -62 -73
84 82 -62 -23 -61 13 -31 11
-88 117 -83 -73 59 2 43 -59
-72 79 -73 79 84 -42 -81 -94
-19 72 31 92 2 -80 101 -40
-76 36 103 -43 -52 -14 48 -108
-1 -61 -30 -110 -95 19 103 -37
-49 51 99 -115 -54 67 127 -14

tfl.pseudo_qconst3 i1 [512, 128]
00000000: 07c8 552e 51db f81d 11df 61e8 fde7 d4fc
00000010: 29f3 2c1d ff06 81fa dbc9 c4e6 bf08 110a
00000020: 32d7 31ae 295e d4f6 261c 9dcd e541 b938
00000030: 171b eeeb e131 e700 2a1e fc09 d7ef f4fc
00000040: 00ce ccee 502b 2a24 412b fd94 76a7 3237
00000050: f10f 1412 e9c2 f5f1 fe57 1e47 b3f4 eef3
00000060: 2f44 e2e4 fbde ecaf 09db d936 99eb 390f
00000070: f761 2d22 1615 f612 3d0d 241e 1d4b 000d
00000080: fd13 dbf2 ff23 0803 0400 ede9 ef1b f901
00000090: eff5 ef06 ee18 0afe fbe4 f8c6 cde1 f1ec
000000a0: 1624 18b6 0701 0af4 fbe5 15ea 0800 1008
000000b0: 35cd fd02 1e19 f90c 017f 08fb f4e1 2512
000000c0: 1ff2 ee0d 2ef4 1300 e417 dcf1 f5fa ead5
000000d0: f607 06e8 07ec 00b9 c2e2 f4f2 fcea 0c09
000000e0: c813 bed5 1e0e 0aed 1ff2 1217 f2fa 0e02
000000f0: 0bed fbf2 f9fe e5f9 b4ef 32e8 11ff dffd
7 -56 85 46 81 -37 -8 29
17 -33 97 -24 -3 -25 -44 -4
41 -13 44 29 -1 6 -127 -6
-37 -55 -60 -26 -65 8 17 10
50 -41 49 -82 41 94 -44 -10
38 28 -99 -51 -27 65 -71 56
23 27 -18 -21 -31 49 -25 0
42 30 -4 9 -41 -17 -12 -4
0 -50 -52 -18 80 43 42 36
65 43 -3 -108 118 -89 50 55
-15 15 20 18 -23 -62 -11 -15
-2 87 30 71 -77 -12 -18 -13
47 68 -30 -28 -5 -34 -20 -81
9 -37 -39 54 -103 -21 57 15
-9 97 45 34 22 21 -10 18
61 13 36 30 29 75 0 13
-3 19 -37 -14 -1 35 8 3
4 0 -19 -23 -17 27 -7 1
-17 -11 -17 6 -18 24 10 -2
-5 -28 -8 -58 -51 -31 -15 -20
22 36 24 -74 7 1 10 -12
-5 -27 21 -22 8 0 16 8
53 -51 -3 2 30 25 -7 12
1 127 8 -5 -12 -31 37 18
31 -14 -18 13 46 -12 19 0
-28 23 -36 -15 -11 -6 -22 -43
-10 7 6 -24 7 -20 0 -71
-62 -30 -12 -14 -4 -22 12 9
-56 19 -66 -43 30 14 10 -19
31 -14 18 23 -14 -6 14 2
11 -19 -5 -14 -7 -2 -27 -7
-76 -17 50 -24 17 -1 -33 -3

tfl.pseudo_qconst4 i1 [256, 63]
00000000: 4140 5403 8f50 77e5 2319 e2a1 a6cf b398
00000010: aaaa 478d f50f 8160 1617 cc3f 95a7 4590
00000020: 9e33 abcb 0813 5404 a8c5 5ded 18c1 d99c
00000030: ab15 25db 1654 5857 b41e 2d8f 83d2 cc09
00000040: 0ab6 c4c7 f8d2 f75b 2542 d630 3e31 31cf
00000050: c1bc c0c7 612f 4d5b 3d0a 150b bf58 ebfe
00000060: d03c 0c6f cb29 7ff0 474b 2ddb d8b4 3105
00000070: df04 50d9 1268 f7e8 ef39 f1f5 f2fa 0fbc
00000080: f5cf dfef 79b2 7821 cae0 3287 7855 e3d1
00000090: fe00 a7b4 93d5 25d7 4c61 8cf4 2011 387f
000000a0: 51a7 319f 3409 5217 715a f4e3 473a dd46
000000b0: cd5d 2d03 49c2 699c 16de bda5 aac6 5430
000000c0: abd3 e3da bc40 b1c1 1496 2a3a 9710 608d
000000d0: ce4a a112 6301 cc5f f067 f024 d924 3446
000000e0: 12af 0ca8 ace1 5994 0dfa 36c4 b2d9 564d
000000f0: 2f7f c5ed 7ed1 c25a ba58 d112 3b99 9858
65 64 84 3 -113 80 119 -27
35 25 -30 -95 -90 -49 -77 -104
-86 -86 71 -115 -11 15 -127 96
22 23 -52 63 -107 -89 69 -112
-98 51 -85 -53 8 19 84 4
-88 -59 93 -19 24 -63 -39 -100
-85 21 37 -37 22 84 88 87
-76 30 45 -113 -125 -46 -52 9
10 -74 -60 -57 -8 -46 -9 91
37 66 -42 48 62 49 49 -49
-63 -68 -64 -57 97 47 77 91
61 10 21 11 -65 88 -21 -2
-48 60 12 111 -53 41 127 -16
71 75 45 -37 -40 -76 49 5
-33 4 80 -39 18 104 -9 -24
-17 57 -15 -11 -14 -6 15 -68
-11 -49 -33 -17 121 -78 120 33
-54 -32 50 -121 120 85 -29 -47
-2 0 -89 -76 -109 -43 37 -41
76 97 -116 -12 32 17 56 127
81 -89 49 -97 52 9 82 23
113 90 -12 -29 71 58 -35 70
-51 93 45 3 73 -62 105 -100
22 -34 -67 -91 -86 -58 84 48
-85 -45 -29 -38 -68 64 -79 -63
20 -106 42 58 -105 16 96 -115
-50 74 -95 18 99 1 -52 95
-16 103 -16 36 -39 36 52 70
18 -81 12 -88 -84 -31 89 -108
13 -6 54 -60 -78 -39 86 77
47 127 -59 -19 126 -47 -62 90
-70 88 -47 18 59 -103 -104 88

tfl.pseudo_qconst5 i1 [256, 64]
00000000: 04fd e300 49d6 be65 c60d 1ae3 3d14 12f9
00000010: 1de5 21f9 03eb c6fb c900 d6de d03e 0403
00000020: 279d 0e2a 0328 e5fc 1ff0 ec81 e901 1bf2
00000030: c2f2 fbe6 9203 40f0 3956 ea40 f3d6 19bf
00000040: bae3 b1bd 3808 deee 81ab c340 fcd7 6d98
00000050: 3fdf c901 cf74 d7fd 31e8 ee10 aaf1 361a
00000060: 39eb 41db 4eea dce5 d9dc 1026 0ee9 29f4
00000070: d2d8 f426 fa52 094e 2efd ec34 95c5 bc23
00000080: ec45 e13c 0737 1935 7656 27dc 0358 e31d
00000090: 2dfc f7fa cd11 2535 3be6 1929 47eb eab9
000000a0: 03b6 2a07 0d3d 4a6c d254 5ef0 2a7f 30cd
000000b0: 03d2 86f9 2e0f 41d1 e40f 1239 3039 0b45
000000c0: fc1c a260 0fdc f0e6 0e7f 7a2e f1aa e1da
000000d0: 5b10 a508 0eef 86ed 0d67 fef6 caac 3fb5
000000e0: 272a 032a 19c5 ef15 f524 0d07 c601 fb76
000000f0: 1f9c 1c84 2d09 2197 cadd 62d5 d2f4 54cd
4 -3 -29 0 73 -42 -66 101
-58 13 26 -29 61 20 18 -7
29 -27 33 -7 3 -21 -58 -5
-55 0 -42 -34 -48 62 4 3
39 -99 14 42 3 40 -27 -4
31 -16 -20 -127 -23 1 27 -14
-62 -14 -5 -26 -110 3 64 -16
57 86 -22 64 -13 -42 25 -65
-70 -29 -79 -67 56 8 -34 -18
-127 -85 -61 64 -4 -41 109 -104
63 -33 -55 1 -49 116 -41 -3
49 -24 -18 16 -86 -15 54 26
57 -21 65 -37 78 -22 -36 -27
-39 -36 16 38 14 -23 41 -12
-46 -40 -12 38 -6 82 9 78
46 -3 -20 52 -107 -59 -68 35
-20 69 -31 60 7 55 25 53
118 86 39 -36 3 88 -29 29
45 -4 -9 -6 -51 17 37 53
59 -26 25 41 71 -21 -22 -71
3 -74 42 7 13 61 74 108
-46 84 94 -16 42 127 48 -51
3 -46 -122 -7 46 15 65 -47
-28 15 18 57 48 57 11 69
-4 28 -94 96 15 -36 -16 -26
14 127 122 46 -15 -86 -31 -38
91 16 -91 8 14 -17 -122 -19
13 103 -2 -10 -54 -84 63 -75
39 42 3 42 25 -59 -17 21
-11 36 13 7 -58 1 -5 118
31 -100 28 -124 45 9 33 -105
-54 -35 98 -43 -46 -12 84 -51
